RoadSafe/assets/models/model.tflite (tflite, 411072 bytes, 6 tensors)

arith.constant f4 [16, 3, 3, 8]
00000000: a5eb 143e c073 efbd a058 f4bd 4a40 c33d
00000010: 8b22 e7bd c6d1 ecbd 98f6 22be 2ba8 1ebe
00000020: b36d 1cbe 50f8 42bc 26c7 b5bd 0cbd 6fbd
00000030: d820 bfbc 72a3 f63d 1481 22bd 5464 0ebd
00000040: d628 ffbd 1807 ba3c c062 22be a0f1 abbd
00000050: 8a70 d33d 6074 363d 6ec6 05be 944a 0a3d
00000060: b411 3c3d 40be f9bd 7a7e 903d 933c 1f3e
00000070: 46fd 12be cc28 6dbd a150 0d3e 4b63 b3bd
00000080: ea2a 893d 306a b4bd 1e61 08be d087 95bd
00000090: beb9 06be 415a 073e 4075 eebc f003 873d
000000a0: 98ad f4bc d649 fd3d 8079 673d fb8f 04be
000000b0: 0584 0a3e 06d2 ab3d 0015 e9bb c5f4 0b3e
000000c0: 6833 b6bc 2a6b d53d 309d 703c 5848 f63c
000000d0: d071 813d c641 e43d ac62 2f3d 1b5a 90bd
000000e0: 0cd9 0cbd d6ad 88bd b002 cbbd d057 15bc
000000f0: e34a 05be 74ca 323d 062e 24be 5a0c 803d
00000100: a606 04be 208c 7a3d 2aa6 b53d 98c0 8c3c
00000110: 2616 8cbd 9bb5 26be c2a0 e73d 06cd e6bd
00000120: 2093 b9bd b07d 3f3c 72ee d13d 6bcc 0c3e
00000130: d6cf 85bd d44d 043d b479 273d 982d d53c
00000140: 00c2 10bd 3661 ef3d 5021 28bc 5679 e03d
00000150: 60be a0bd 6834 c3bc a026 d5bd 16d6 76bd
00000160: 146b 093d a0f8 1c3d 3094 61bc 21c0 153e
00000170: c205 c83d 06ac d73d c0df 0e3d e6cd c2bd
00000180: a086 de3b 66b6 ec3d 0020 023d 06a7 c7bd
00000190: 0098 8ab8 586f a8bc 8cc1 423d aa4c ec3d
000001a0: 0073 56bd 49ac 113e b34d 1b3e 717c 043e
000001b0: 99f4 0a3e a049 ddbd 2546 023e c8fa 14be
000001c0: 6d4e 003e 2128 293e 9b15 d5bd 006e e9bc
000001d0: 0c6e 723d c0b4 6a3b ec63 1abd 133e 273e
000001e0: 3b45 ebbd c018 0dbb 180a 973c 8bdf e7bd
000001f0: 1417 373d 80da c63c 74d1 043d 1e74 00be
00000200: b691 d6bd 8ce3 6abd 283b fd3c 5073 02be
00000210: 942e 24bd 6b26 a8bd 6068 6bbd a0ea 00bd
00000220: 2a0e df3d 409f 33bd 504f c0bd 8b24 edbd
00000230: 7aa5 b03d 301b 9abd 58cd c0bc d013 f6bd
00000240: 20f0 0f3d 05fa 1c3e 769f ae3d 18fb c33c
00000250: 801a 4dbc a83d d03c 6236 ca3d 8080 243d
00000260: d0b1 ddbd 00f1 febb cc3f 45bd e6fb ef3d
00000270: 4b5c 01be a06e cd3b 4852 03be 9612 91bd
00000280: c304 1d3e 1b0d 1d3e 70a6 d1bd d653 e93d
00000290: 00cd 8a3b 0ed7 1fbe d8dd bfbc d693 6ebd
000002a0: 16ca e83d 4634 9abd a023 db3b 7090 933d
000002b0: a83b f13c 549f 6b3d 6b52 e1bd aca8 103d
000002c0: 60a2 09bd c071 a33c 069a bcbd 7b83 d6bd
000002d0: b3db 07be 66b6 debd f6de c2bd 1827 ef3c
000002e0: 605f 12be fb33 f9bd a2ec d63d bb38 fcbd
000002f0: 60c1 5c3d 6b9b e6bd 3ad1 f83d 366e 9cbd
00000300: 0bf7 f9bd f6a6 e53d 74f5 673d 404f 7d3b
00000310: d3d4 21be 85ec 123e 9be6 d2bd 2098 04bd
00000320: 650a 0e3e d2de fb3d db89 a8bd ecae 433d
00000330: d69c 15be b092 3cbc 1827 d0bc 9621 c83d
00000340: a3bb 05be 10d3 c6bd c071 0ebd 9b75 bcbd
00000350: d809 b43c 1b18 adbd 68d9 de3c 1841 b93c
00000360: ec31 04bd a0da 003d 9045 97bd 8a09 d43d
00000370: 2849 d13c b0ad dfbd 1346 273e 9aa0 b23d
00000380: 58e1 15be 805d fd3a 60b6 07bd b6c5 cfbd
00000390: d66e eb3d 60af a53b 94c9 433d 985c b53c
000003a0: b0ef 113c 18fe 8cbc 00b2 eb3b ecab 443d
000003b0: a09f 783d 8013 633d 6b11 cbbd 2cfd 53bd
000003c0: 5d44 123e c011 4c3d 0020 dfbd ebe2 a0bd
000003d0: 7638 e73d cb8c 90bd 605e 85bd 36a7 10be
000003e0: d06f ecbd ab60 d0bd ac93 59bd 8122 013e
000003f0: 7b78 98bd 39ee 243e 0cb2 473d 6bd4 84bd
0.14543016 -0.116919994 -0.119309664 0.095337465 -0.112858854 -0.115634486 -0.1591438 -0.15493838
-0.15276222 -0.011900023 -0.08875875 -0.0585299 -0.02333109 0.120428935 -0.03967388 -0.03476365
-0.12458961 0.02270846 -0.15857983 -0.08395696 0.103241995 0.044544578 -0.13063976 0.03376253
0.04591532 -0.121944904 0.070553735 0.15550451 -0.14354429 -0.057900235 0.13800289 -0.08759173
0.06697638 -0.08809316 -0.13318297 -0.07301295 -0.13156793 0.13218023 -0.029108644 0.06592548
-0.029867932 0.12367599 0.056512356 -0.12945549 0.13526924 0.08389668 -0.007113099 0.13667591
-0.02224131 0.104208305 0.014685914 0.030063793 0.06320536 0.11145358 0.04281871 -0.07048436
-0.03438668 -0.066737816 -0.09912622 -0.009115174 -0.13016848 0.043650106 -0.16033182 0.06252356
-0.12893161 0.06116879 0.08869584 0.01718168 -0.06840162 -0.16280214 0.11309959 -0.11269574
-0.09061265 0.011687681 0.10250558 0.13749854 -0.06533782 0.032300785 0.04088755 0.026022717
-0.035341263 0.116884634 -0.010261849 0.10960643 -0.07848811 -0.0238287 -0.10407758 -0.060262762
0.033549383 0.038323045 -0.013768241 0.14624073 0.09766723 0.10530858 0.034881353 -0.09511928
0.006790951 0.11558227 0.0317688 -0.09748654 -6.608665e-05 -0.020560905 0.047547862 0.1153806
-0.052355766 0.14225878 0.15166359 0.12938096 0.13569869 -0.108050585 0.1272207 -0.1454879
0.12529917 0.16519214 -0.104045115 -0.028494835 0.05918698 0.0035813302 -0.03769295 0.16332273
-0.11487814 -0.0021529645 0.01843743 -0.11321934 0.044699743 0.02427411 0.032426313 -0.12544295
-0.10477011 -0.05734591 0.030911997 -0.127393 -0.040083483 -0.08210453 -0.057472587 -0.031473756
0.108913735 -0.043853045 -0.09390128 -0.11579236 0.08625312 -0.07524717 -0.023535416 -0.12015498
0.03514111 0.1532975 0.085265085 0.023923442 -0.012518525 0.025420025 0.09873654 0.04016161
-0.10824931 -0.0077801943 -0.048156545 0.11717968 -0.12632863 0.006269291 -0.12824357 -0.07083623
0.15333848 0.1533703 -0.102368236 0.113929436 0.0042358637 -0.1560938 -0.023421213 -0.058246456
0.1136667 -0.075295016 0.0066875964 0.07205284 0.029447392 0.057524994 -0.11002048 0.035317108
-0.03360212 0.019951701 -0.09209065 -0.10474297 -0.13267402 -0.108746335 -0.09515183 0.029193446
-0.14294195 -0.121681176 0.10494353 -0.12315508 0.053895354 -0.112601124 0.12149282 -0.076382086
-0.12205323 0.11213486 0.056630567 0.0038651973 -0.15803842 0.14348038 -0.10297891 -0.03237164
0.13871153 0.12298359 -0.08229419 0.04777424 -0.1461061 -0.011509582 -0.025409266 0.09772031
-0.13059859 -0.09708226 -0.03477645 -0.09202119 0.02197735 -0.084518634 0.027203277 0.022614047
-0.03227417 0.031458497 -0.07386315 0.10353382 0.025547579 -0.109218 0.16335325 0.087220386
-0.14636743 0.0019330233 -0.03313291 -0.10145132 0.1149575 0.0050563067 0.04779966 0.022138879
0.008907244 -0.017211005 0.00719285 0.04801552 0.060699105 0.05543852 -0.099154316 -0.051755115
0.14283891 0.049821615 -0.108947754 -0.07855781 0.11290066 -0.07058104 -0.06512141 -0.14126286
-0.11544764 -0.10174688 -0.053119346 0.12610818 -0.07444855 0.161065 0.048753783 -0.06485828

arith.constant1 f4 [3, 32]
00000000: 9661 003e efa6 a33e 20fc 9e3d 8731 c3be
00000010: 00e8 17be 66e0 493e cbf7 a83e d7b8 81be
00000020: 68ce 193d 0041 653b c805 0ebe 8030 773c
00000030: 7b84 cc3e 78e5 623d 4925 cb3e 832e 873e
00000040: ea4b 773e 0b4d 8c3e 6282 413e 3724 8c3e
00000050: c021 09be d301 843e 3a9e 173e 07cc ae3e
00000060: 9f78 833e 3072 aebd 9a99 3e3e 14d4 ea3d
00000070: 53f0 c1be 37ca 69be ffb4 a5be 805d d53c
00000080: 5a10 0b3e f674 22be cedb 563e a09f 85bd
00000090: 0e7e 523e 2429 67be da5d 7c3e b67e 033e
000000a0: 2085 443c a31b a13e 8540 b93e 293e 9b3e
000000b0: ee45 773e b046 ddbd a77d a63e 462a 453e
000000c0: 8a40 6cbe e0d7 693d 10cc d0bc 7639 6e3e
000000d0: bea6 773e 0cea 80bd d49b ec3d 6824 fabd
000000e0: 48b0 39bd b74f 813e a57c c2be 338b 823e
000000f0: 3403 47be 28a3 04bd af35 cc3e 302f a23d
00000100: d6db 24be c048 f23b 40a6 ccbe 5c3c 82bd
00000110: 0058 06bb 80a5 eabd 7fd4 8d3e 64f8 e13d
00000120: 11e2 8dbe 07f4 d33e 68c6 2f3d d768 65be
00000130: d45d bebe 3bb1 c7be 15f0 58be a235 22be
00000140: d432 853d a577 bc3e afdf 63be b091 a4bd
00000150: ae5a c6be 568f 48be fe66 4d3e f45d c2bd
00000160: fa22 383e ee36 07be 9e07 9ebe d00a a2bd
00000170: fca8 f83d c8be 243d 3485 a1be 443d afbe
0.12537226 0.31963298 0.07762933 -0.38123724 -0.14834595 0.19714507 0.3300155 -0.25336334
0.03755036 0.003498137 -0.13869393 0.015087247 0.39944825 0.05539462 0.39676884 0.26402673
0.24150053 0.2740253 0.18897393 0.2737138 -0.13391781 0.25782642 0.14806452 0.34140036
0.25677964 -0.08517873 0.18613282 0.11466232 -0.37878665 -0.22831045 -0.32364652 0.02604556
0.13580456 -0.1586493 0.20982286 -0.06524587 0.20555899 -0.22574288 0.24645177 0.12841305
0.01199463 0.31466398 0.36182037 0.30320862 0.2414777 -0.10804498 0.3251774 0.19254407
-0.23071495 0.05709064 -0.02548793 0.23264107 0.24184701 -0.06294641 0.11553159 -0.12213975
-0.04533413 0.2525613 -0.3798572 0.25496826 -0.19434816 -0.03238216 0.39884707 0.079191566
-0.16099486 0.0073939264 -0.3997059 -0.06359169 -0.002049923 -0.11457348 0.27701184 0.11033705
-0.27711537 0.41397116 0.042913824 -0.22403274 -0.3718096 -0.39002404 -0.21185334 -0.15840772
0.06503835 0.36810032 -0.22253297 -0.080356 -0.38741058 -0.19585928 0.2005882 -0.094905764
0.17982092 -0.13204548 -0.30865186 -0.079122186 0.12141606 0.040221006 -0.31546938 -0.3422643

arith.constant2 f4 [32, 3136]
00000000: d81c 433c 5b7d a1bc b894 5b3c 3543 09bd
00000010: 992c 2dbd 40fb 52bc c8e6 b13c 8607 053d
00000020: fc7f eabc c8f7 313c 0bca 11bd 56cd bcbc
00000030: 9afa d4bc f71f b1bc 1684 2c3d 19e2 91bc
00000040: bc4b bb3c 80b9 e63b 0457 043d 56a8 f3bc
00000050: bcdf 08bd 60f8 443b 4056 033b 4a70 e0bc
00000060: 8c25 b5bc 24f4 d23c 6c19 ae3c d088 163d
00000070: 0c42 15bd 20d1 b33a d63d 1f3d 453f 26bd
00000080: 58fd b83c 6210 64bc c06b d7ba abdf 0fbd
00000090: 0c68 bc3c be95 973c c871 f3bc 6f67 2cbd
000000a0: 3cdc d53c ce1e 2e3d 7cff 063d 3471 fb3c
000000b0: e8ea ac3c 99a7 27bd 5564 ebbc 682b 1c3d
000000c0: 6cb3 7f3c a8e6 173d 9881 2a3d acf5 d83c
000000d0: c0cc 123c 5832 9bbb 069d 193d 4833 ff3c
000000e0: d414 153c 0e07 103d c446 debc 4465 0b3d
000000f0: a3f8 cabc 1016 13bd 5c3c 4cbc 3454 a23c
00000100: b85c 13bc bc9c ddbc 4365 18bd 9e30 e7bc
00000110: 1ae3 8b3c 7a7d 813c 6be1 f6bc 3cfe e33c
00000120: f80e 2f3d 788a a83b c450 003c 8079 163b
00000130: c875 c6bb c801 0abd 9705 b7bc 2c63 453c
00000140: 2822 683c d06f 0d3b 726b bebc 1072 bc3b
00000150: bc97 033d ceed 02bd 74de 38bc c402 0f3d
00000160: 5902 28bd c86c a23c 4a28 61bc 69b9 19bd
00000170: 0014 f63c 5ac9 153d 8891 0dbc bec9 153d
00000180: 2438 373c 5ce4 303d 28be d73b d6c2 2a3d
00000190: 7e62 0ebd 8252 7fbc 20ba e5bb 4080 853c
000001a0: 10a0 d1bb e688 303d 1fd5 f5bc 3cac 0abd
000001b0: f0fe 043d 0e2d 023d 4029 da3c 708e 36bb
000001c0: 5af6 8e3c b03f 483c 06ad e8bc 2028 713c
000001d0: 1c29 073c 948c 00bd b72a d6bc 543f 18bc
000001e0: 7bd5 28bd 4012 adbb 6004 1c3d f8ae 9dbb
000001f0: b4dd 5bbc b289 26bd c1b9 1fbd 1c58 0a3d
00000200: 9815 cbbb 24a9 0cbd 8048 133b 804d fc3b
00000210: ca55 c4bc 48e6 ec3c 50b5 bd3b b0d3 30bd
00000220: 029e f7bc e89a fa3c d009 033c 2812 843b
00000230: a00a 053b 14a0 1c3d 0ce8 1e3d 2c66 d9bc
00000240: 2c20 ae3c 3eaf 7dbc a861 7c3c 2480 36bc
00000250: 7f09 0fbd d82b 08bd 6b88 19bd a288 2e3d
00000260: 389e b83c 6c82 bb3c 6019 193c e66f 813c
00000270: 25bc 88bc 4b0c 2dbd 42ea 0dbd 4461 a2bc
00000280: 4816 223c 20de 703b 6c40 a03c f47e 20bd
00000290: e076 003c d881 d63b ac54 ba3c b898 0a3d
000002a0: 386a 893b 20b1 d63c a5bd b3bc 80e9 11ba
000002b0: 9219 01bd a4d8 a73c b033 9c3c dc1c c73c
000002c0: c015 3b3a 38d0 f2bc 90ce ec3c 2c7b c83c
000002d0: 389e 25bc a09f d1bb d8f7 0d3c f0f2 de3b
000002e0: 8095 34bc b051 89bb 7060 1b3c 5c8d 57bc
000002f0: aad8 9cbc fca8 a73c 41de d5bc b4e8 143c
00000300: 2435 b73c 94f7 dcbc 4ffa c2bc 408e 47ba
00000310: 84d3 113c 2c25 ca3c a2f8 8e3c 6413 233d
00000320: 40c7 cb3a e15d 0ebd 40d8 bb3c 0035 833c
00000330: 7015 4a3b 5120 94bc 6037 a73a 6e73 233d
00000340: f075 433b cc2c 2c3d d0a4 323b ff62 e1bc
00000350: 12a8 193d 8003 2bbb a04d a13a 6ea6 e8bc
00000360: a801 ab3b 0210 203d acc9 1e3d 0692 2a3d
00000370: 7a0e 803c d3e8 1dbd 50b9 afbb 36a7 2cbd
00000380: 5452 103c 902a de3b 8865 1bbc 2865 d83b
00000390: 346c 2e3d fd5c acbc 7190 8cbc e800 9d3c
000003a0: b4b1 283c c76c 1ebd 08f3 11bc c085 cebb
000003b0: a0e6 bf3b 243a fa3c 8216 19bd b052 3a3b
000003c0: 4907 eabc 4da1 12bd 1685 943c 9038 a83b
000003d0: dacd 193d 7f76 18bd ea27 803c 8606 1dbd
000003e0: 45fd d1bc 7a8e 913c 1e10 283d b72a 01bd
000003f0: be56 2fbd 067d 91bc ec44 ae3c 7413 a13c
0.011908732 -0.019713094 0.0134021565 -0.03351136 -0.04227886 -0.0128772855 0.02171649 0.032477878
-0.02862548 0.010862298 -0.035593074 -0.02304713 -0.025998402 -0.021621687 0.042118154 -0.017808007
0.022863261 0.0070411563 0.032309547 -0.029743355 -0.033416495 0.003005527 0.0020040423 -0.027397294
-0.02211263 0.025751181 0.021252356 0.03675157 -0.03643994 0.001371894 0.03887733 -0.040587682
0.022581741 -0.013919922 -0.001643531 -0.035125416 0.022998832 0.01850402 -0.029717341 -0.04209083
0.026105992 0.042509846 0.032958493 0.030693628 0.021108106 -0.040931318 -0.028734365 0.038127333
0.015606742 0.037085205 0.041627496 0.026484333 0.008959949 -0.004736226 0.037503265 0.031152382
0.009099204 0.035162978 -0.027133353 0.03403212 -0.024776762 -0.035909712 -0.012465563 0.019815542
-0.008994274 -0.027052276 -0.037205946 -0.028221425 0.017076064 0.015806902 -0.030136785 0.02783119
0.042738885 0.00514346 0.007831756 0.0022960603 -0.006056521 -0.033693105 -0.022341533 0.01204757
0.0141683 0.0021581538 -0.023244593 0.005750902 0.032127127 -0.03196507 -0.011283506 0.034914747
-0.041017864 0.019827262 -0.013742516 -0.037530337 0.030038834 0.036568977 -0.008640654 0.03656935
0.011182819 0.04318653 0.0065839477 0.041689716 -0.0347619 -0.015583636 -0.007010713 0.016296506
-0.0063972548 0.043099307 -0.03000885 -0.03385566 0.03246969 0.03178125 0.026630998 -0.0027855895
0.017451454 0.0122222155 -0.028402817 0.014719039 0.008249547 -0.031384066 -0.026143415 -0.009292442
-0.041219216 -0.0052817166 0.03809011 -0.0048121177 -0.013419557 -0.04065866 -0.038995508 0.033775434
-0.0061976425 -0.034340993 0.0022473633 0.0076996684 -0.023966689 0.0289184 0.0057894364 -0.04317063
-0.030226711 0.030591443 0.007997945 0.0040304847 0.0020300522 0.0382386 0.038795516 -0.026537977
0.021255575 -0.0154836755 0.015404142 -0.01113895 -0.034921166 -0.033244938 -0.037483614 0.042610772
0.022536382 0.022889338 0.009344429 0.015800428 -0.016691277 -0.04224805 -0.034647234 -0.01982177
0.009893008 0.003675349 0.019561969 -0.039183572 0.007840842 0.0065462403 0.022745453 0.03383705
0.0041935705 0.026207507 -0.021941015 -0.0005566105 -0.031518526 0.020489044 0.019067615 0.024305753
0.0007136725 -0.029640302 0.02890709 0.024472795 -0.010108523 -0.0063972026 0.008665048 0.0068038628
-0.011021972 -0.004190646 0.009483442 -0.013156261 -0.019146282 0.02046632 -0.026106955 0.009088684
0.022364207 -0.026973523 -0.023800997 -0.00076124445 0.008900527 0.024675928 0.017452542 0.039813414
0.0015547052 -0.0347575 0.022930264 0.016016483 0.0030835532 -0.018081816 0.0012757592 0.039905004
0.0029824935 0.04203491 0.002725888 -0.027513025 0.0375138 -0.0026094615 0.0012306459 -0.028399672
0.0052187033 0.039077766 0.038766548 0.041643165 0.015631903 -0.038552117 -0.005362667 -0.042151652
0.008808691 0.006779976 -0.009484656 0.0066038556 0.04258366 -0.021040434 -0.017158719 0.019165471
0.010296274 -0.038677957 -0.008908041 -0.0063025653 0.00585635 0.030545302 -0.03737498 0.0028430633
-0.028567927 -0.03579836 0.018129867 0.005133696 0.03754983 -0.03722238 0.015644033 -0.0383363
-0.025633464 0.017768133 0.041030996 -0.031534877 -0.042807333 -0.017759811 0.021273099 0.019662596

arith.constant3 f4 [8]
00000000: 0000 0000 0000 0000 0000 0000 0000 0000
00000010: 0000 0000 0000 0000 0000 0000 0000 0000
0.0 0.0 0.0 0.0 0.0 0.0 0.0 0.0

arith.constant5 f4 [16]
00000000: 0000 0000 0000 0000 0000 0000 0000 0000
00000010: 0000 0000 0000 0000 0000 0000 0000 0000
00000020: 0000 0000 0000 0000 0000 0000 0000 0000
00000030: 0000 0000 0000 0000 0000 0000 0000 0000
0.0 0.0 0.0 0.0 0.0 0.0 0.0 0.0
0.0 0.0 0.0 0.0 0.0 0.0 0.0 0.0

sequential_1/conv2d_1/convolution f4 [8, 3, 3, 3]
00000000: da1e dabd 60b0 e3bd 06a1 3abe bcc3 5ebd
00000010: b248 a8bd d888 753d 7adf 1cbe d8a2 08bd
00000020: fc7d b63d 7fa9 67be a043 7b3c 3ca6 78bd
00000030: 9e63 b7bd 86a5 263e e890 073d 8563 65be
00000040: 4871 36bd 30db 313d b0d9 43bd 78ea 673d
00000050: 60bf 81bd e4ab 1abd e42e 583e 6ca7 4ebd
00000060: 902c ca3d 7046 55bc 8c7b d23d 604e 9e3c
00000070: c2e1 b5bd 8085 233d b024 783e 746a 6fbd
00000080: 0a4f e9bd 82b3 283e 2233 393e 88ed d43d
00000090: 98f1 653e 9c89 df3d 4e39 383e 3a14 0a3e
000000a0: 3c17 62be cc59 383e ac7e dd3d 8028 2ebc
000000b0: 48a2 9f3d 04a0 c83d 7638 97bd f126 05be
000000c0: 70ed 6ebe fde8 75be e08d b23c 8097 5abe
000000d0: 62b5 adbd f4d5 13bd 3ca9 23be 596d 48be
000000e0: a040 22be 00de 003d 10f6 813d f670 4cbe
000000f0: 60b9 aabb 987f 9f3d 4850 313e f294 57be
00000100: c0a3 b93c 20c6 a8bd 3e7a 2f3e 9063 263d
00000110: 2a86 8fbd f00b 0cbe eceb d13d 885b 2abe
00000120: c2e8 123e 0041 863c b083 6a3e 4058 513c
00000130: fc48 0f3e 5c7b 97bd 0015 2c3c 95cc 59be
00000140: 5686 2d3e 006b dcba 3818 c9bd 6c49 03be
00000150: 34e6 2e3e f852 41bd 9636 6dbe e0be 74be
00000160: c67c d6bd 6260 043e ca07 393e 223c b8bd
00000170: 70e7 c33d 8892 063d 20d0 2ebe c8e2 a7bd
00000180: f46e 5f3e a0ad 3a3e 001c 6339 007f 233c
00000190: 9e59 f4bd 2c25 8dbd 0a8b adbd 6874 37be
000001a0: 3e2b bcbd 6c9a 883d 3ba8 6dbe 600b da3c
000001b0: 7688 4b3e c0de 0f3c f088 2f3d c48d 113e
000001c0: 000c 65be 921d 09be 7a81 673e 5871 1a3e
000001d0: f041 ae3c 54a4 813d 6c5b fd3d 1a04 34be
000001e0: 9027 0e3d de8a 39be 7e4a cebd 2823 973d
000001f0: 2871 ea3d 4c01 bcbd a879 553d 6082 58bd
00000200: 4816 103d 30ba a7bd e44d bf3d 08aa edbc
00000210: 0163 73be be39 0c3e 06b5 a2bd fe93 1e3e
00000220: 8c84 71bd f0ea c53c d80b 2d3e 30d4 203d
00000230: 90e3 1ebc de6b 0bbe a865 053e e27b 51be
00000240: 8cdc cfbd f898 473e 0057 863c 3061 323e
00000250: 3090 67bd 0643 093e bbc5 62be f6ef 4b3e
00000260: 2c6f 50bd 8c3a 953d 80da 653e 8869 2ebd
00000270: 8cf4 533e 9099 7a3d 988d af3d 300f 9b3c
00000280: d720 76be 90d8 ee3c ead2 0f3e d00d 6d3d
00000290: 62a1 743e a617 403e 58fc 17be e2d1 4abe
000002a0: 94e2 483e b4fc 3bbd a4d9 66be d06b 993d
000002b0: a079 b73d 8aa8 653e f89c 8c3d 222a 1b3e
000002c0: 6651 163e d457 1a3e f85c f83d 5e79 013e
000002d0: 7e73 613e d852 58be b810 4f3e 4d54 46be
000002e0: b809 02bd 1a9a 593e 7862 533d f413 04be
000002f0: 4c0e 753e 78f3 493e 6477 363e 841d 3e3e
00000300: 504d 503e c07e a83b 040b c53d 5a24 0e3e
00000310: 9cbc 4cbd 722f 4c3e 96d3 703e b813 e0bc
00000320: bdab 0cbe 78b4 3abe 4ca4 44be 3e83 4d3e
00000330: ec6c 1c3e 4033 ecbd 0c13 7dbd ba56 6a3e
00000340: 8829 1abe 5499 e53d 2a41 3a3e 3ae8 a9bd
00000350: b651 33be 8ae2 613e 709e 58bd b0bb be3d
-0.10650416 -0.11117625 -0.18225488 -0.054385886 -0.082169905 0.059944957 -0.15319625 -0.033358425
0.08910748 -0.22623251 0.015335947 -0.06070541 -0.08954547 0.1627408 0.033097178 -0.22401245
-0.044541627 0.043421924 -0.047815025 0.05662009 -0.0633533 -0.037761584 0.21111637 -0.050452635
0.09871781 -0.013017282 0.10277471 0.019324481 -0.088809505 0.039922237 0.24232745 -0.05845113
-0.11392029 0.16474727 0.18085912 0.10396868 0.22455442 0.10914919 0.1799061 0.13484278
-0.22079176 0.18003005 0.10815176 -0.010629773 0.077946246 0.097961456 -0.07383816 -0.13003136
-0.23332763 -0.24014659 0.021796167 -0.21346855 -0.08481862 -0.036092713 -0.15982527 -0.19572963
-0.15844965 0.031461716 0.06345761 -0.19964966 -0.0052100867 0.077880085 0.17315781 -0.21052912
0.02266109 -0.08240914 0.17136475 0.040622294 -0.07008012 -0.13676429 0.10250077 -0.16636479
0.14346603 0.016388416 0.22901797 0.012777388 0.13992685 -0.07396576 0.010503054 -0.21269448
0.16945776 -0.0016816556 -0.098190725 -0.12820977 0.17080003 -0.047198266 -0.23165354 -0.23900938
-0.104730174 0.12927392 0.18069378 -0.089958444 0.095656276 0.032854587 -0.17071581 -0.08197552
0.21819669 0.18230295 0.00021658838 0.00997901 -0.119311556 -0.068918556 -0.08473785 -0.17915499
-0.09187935 0.06670079 -0.23208706 0.026616752 0.19876274 0.008781135 0.042855203 0.14214236
-0.22367859 -0.13390186 0.22607985 0.150823 0.021271676 0.06330171 0.12370953 -0.1757969
0.0347057 -0.1811938 -0.10072802 0.073797524 0.11447364 -0.09179935 0.052117974 -0.05285871
0.0351775 -0.08189809 0.09341028 -0.029011741 -0.23768236 0.13693902 -0.07944684 0.15486142
-0.058964297 0.024159878 0.1689905 0.039264858 -0.00969781 -0.13615367 0.1302706 -0.20457414
-0.10149488 0.19491947 0.016398907 0.17419887 -0.056533992 0.13404474 -0.2214574 0.19915757
-0.05088727 0.072865576 0.22446632 -0.04258111 0.20698756 0.061181605 0.08571929 0.01892814
-0.24035965 0.029156 0.14045301 0.0578745 0.23889688 0.18759021 -0.14842355 -0.19806626
0.19617683 -0.045895293 -0.22543961 0.07491267 0.08958745 0.22427574 0.06865877 0.15152791
0.14679489 0.15072566 0.121271074 0.12643954 0.22016713 -0.21125352 0.20221221 -0.19368096
-0.03174755 0.21250191 0.05160758 -0.12898237 0.23931235 0.19721782 0.17818981 0.18565947
0.20341992 0.005142063 0.09621242 0.13881055 -0.04998456 0.19939974 0.23518214 -0.027353153
-0.13737388 -0.18232906 -0.192033 0.20069596 0.15275925 -0.11533213 -0.061785743 0.22884646
-0.15054905 0.11210886 0.1818892 -0.08296247 -0.17511639 0.22059074 -0.052885473 0.09313142
